slides/python/cnn_model.pth (torch, 830872 bytes, 8 tensors)

conv1_layer.weight f4 [16, 1, 3, 3]
00000000: e1ba 99be 8f39 edbe 38d6 04bf 4bbb 583e
00000010: 8942 893e d983 693e c7bc 383e c70f 6f3d
00000020: e60d e13e 549c f8bb 2ef9 34be 5916 e6bd
00000030: f2bd fdbe a5cd 093e e875 833e 5de6 9a3e
00000040: 45a6 0b3f 7d95 4fbe 6e80 673c 9e16 113f
00000050: c2a4 8f3e 6d9a 59be 01ea 2dbe 52d7 f93e
00000060: ddfc 66be baea dbbe 0d8c d1be c11d 5e3e
00000070: 566b a8be 5a75 c2be a204 e73e 2969 943d
00000080: d2f9 08bf 9e59 ae3e 4c41 e73e 6f4f 523e
00000090: 135f c03e 9755 dcbd c3a6 ebbc 50dd ed3d
000000a0: a4ab bdbe 45e7 81be 43f1 cc3e 9a25 d23e
000000b0: 5211 923e 41e9 ce3d ef75 a9bd 4f86 143f
000000c0: d932 133e 1608 abbe bf83 5c3e 983a b73d
000000d0: 8995 a6be 809c c3be 5fb5 a5be 7c11 03bf
000000e0: 459b c0bd 36e7 9d3e b468 d03e f9a1 b33e
000000f0: 0f76 4b3e 56a4 e03c efa2 80be e6a0 c03e
00000100: ae1c 34bb 6d3d 28bf b3d7 ff3d 07d9 0a3f
00000110: f5fb 36be c89c af3d 4747 493e 84d0 df3d
00000120: 245e 493e 75a4 08be d94f 883e 7a32 b53e
00000130: fe96 7a3e 8ecf b63e 78d3 323e 4559 633e
00000140: 7997 833e bd16 1c3d ba81 a4bd 82ae 113f
00000150: 0af4 1e3e 52f9 db3e ceb9 483e 49a3 013f
00000160: ef5d 183e 208e 8abe 4ca8 4abd ae7c 89bc
00000170: 4d2f 15bf 9c7f 8b3e 16de b53e 8a4d 713e
00000180: 44e1 88be 2100 ac3e 8449 23be 49ec 513c
00000190: f1cc 0cbe e59c 7fbe 5c6f 6abe 5364 c0bd
000001a0: e6c5 0dbe a891 65be a7b2 c1bd 1364 44be
000001b0: a250 b53e f3d6 db3e 60f2 d7be abfb 073f
000001c0: 27c1 3ebe f3d3 e9be 3ad6 be3e 9cc7 953c
000001d0: 7d65 d2be 67c9 92be fa77 18be b025 2ebc
000001e0: a416 8fbc 52c4 37be 2ebf 99be a84b 49be
000001f0: ef52 49bc 76ab 92be 79c1 00be b67c 553e
00000200: 3bb0 62be 90a7 fb3c b117 cf3c 5e45 2ebe
00000210: 28fd 453c f503 9fbe 6e0d 63be 8c5c 5bbe
00000220: 3b4d 093e 770e 293d 0516 7e3e de3a 6b3d
00000230: 93a1 b3be 178a 8d3e 0f33 aabe 7e1a a13d
-0.3002539 -0.46332976 -0.5188937 0.21165197 0.26808575 0.22804202 0.18040763 0.058364656
0.43955916 -0.007586995 -0.1767318 -0.11234731 -0.4955898 0.13457353 0.25675893 0.30253878
0.5455058 -0.20271869 0.014129741 0.56675136 0.28055388 -0.21250315 -0.16983797 0.4879709
-0.22557397 -0.4295252 -0.40927163 0.21691038 -0.3289439 -0.37980157 0.45120722 0.0724662
-0.53506196 0.34052747 0.45167005 0.20538114 0.37572536 -0.107585125 -0.028766042 0.11614478
-0.37045014 -0.25371757 0.40027818 0.41044313 0.2852884 0.101030834 -0.08274447 0.5801744
0.14374866 -0.33404607 0.21534632 0.08946723 -0.3253596 -0.38205338 -0.32364938 -0.51198554
-0.09404615 0.30840462 0.40704882 0.35084513 0.19869255 0.027422111 -0.25124308 0.37622756
-0.0027482915 -0.6571873 0.12492313 0.5423741 -0.17869551 0.085748255 0.19656096 0.10928443
0.19664818 -0.13343985 0.2662342 0.35390073 0.24471661 0.35705227 0.17463481 0.22202022
0.25701502 0.038107622 -0.08032556 0.569069 0.15522781 0.42963654 0.19602129 0.5063978
0.14879583 -0.27061558 -0.049476907 -0.016783085 -0.582753 0.27245796 0.35521 0.23564735
-0.26734364 0.33593848 -0.15946013 0.012812682 -0.13750054 -0.24962194 -0.22894043 -0.09394135
-0.13845024 -0.22418845 -0.09457903 -0.191788 0.3541308 0.4293743 -0.42177105 0.5311839
-0.1862837 -0.45669517 0.37272817 0.018283658 -0.41093054 -0.28669283 -0.14889517 -0.010629103
-0.01746685 -0.17945984 -0.3002867 -0.19657767 -0.012287839 -0.2864644 -0.12573804 0.20848355
-0.22137539 0.030719548 0.025279852 -0.17018649 0.012084283 -0.31057706 -0.22173092 -0.21422023
0.13408367 0.04127356 0.24813087 0.057429187 -0.3508421 0.27644417 -0.3324208 0.07866381

conv1_layer.bias f4 [16]
00000000: d27c f63c d98f 4c3e ed7e 2fbe a2a6 b23e
00000010: da33 f2bc fbf0 773d 2265 423d e4b3 cabc
00000020: 722e 203e d207 cf3e ca40 be3d 1577 0dbe
00000030: a1de 233e 514d 85be 59c6 70bd 8fed aabc
0.030088816 0.19976749 -0.17138262 0.34892756 -0.02956574 0.06053255 0.04745973 -0.024743982
0.15642717 0.40435654 0.09289701 -0.13814957 0.16002895 -0.2603555 -0.05878291 -0.02086523

conv2_layer.weight f4 [32, 16, 3, 3]
00000000: 41ff 17bb 8850 583e c2a4 693e 6460 833e
00000010: 3114 093e 8085 983d ed73 2cbe 3d96 ad3c
00000020: f6a0 3e3d d1b1 fdbb c3e9 403e 1b57 243e
00000030: a23c 953b c75e bb3d 2081 b9bd 17d6 adbe
00000040: c4c0 91be a4ed 43bd ba63 94be 1c45 dabd
00000050: 052d 32be 9be0 80bc 94d3 803d d5fa 193e
00000060: 37f3 ca3e f8ea 443e 0d4b 9ebb 5c92 5e3c
00000070: 7c4a 2b3c 9fd3 5f3d b47b 453e bff0 afbd
00000080: fcbb 5bbe b50a 5ebe ed51 25be 2522 1abe
00000090: 15a0 283e 768e e73d bfb6 de3d 8556 2f3e
000000a0: 2f19 95bd 86f6 2bbe bb15 95bd 4906 52be
000000b0: e548 61be f893 09be ed4f 2abe 737e 3abe
000000c0: c671 033c 35d7 ef3c 81f9 f23d 340c 5c3e
000000d0: 9940 a93d 9939 ddbd 3dd9 eabd b956 af3d
000000e0: 72b4 453e ea81 503e d02c 803e 4f3a e53d
000000f0: f540 c8bd d75e a6bd d410 d0bc a2fb 21bd
00000100: 204f 30be 5a6a 86bd 9eca ff3d 8e5c 1fbe
00000110: a36d 16be bb2a efbd 049c 66be 7e7e 9dbe
00000120: 413d 863c d27d 873d a25c 6e3d 7fbc 033e
00000130: f007 2b3e 05b7 e63c beef c3bd 2fb3 b4bd
00000140: 0ba6 52be 994f 79bd 36e6 273d 7eb1 473e
00000150: eddf d23d 3241 f93d 57b1 2c3e 5736 29be
00000160: 6099 33be 40ea 44be 0c24 53bd c584 d33c
00000170: d4be 063e a720 8f3d 3637 073e 3131 cabb
00000180: ecaf 13bd b202 1abd 559f abbe 0cff fbbb
00000190: e3aa 39bd 6dc8 adbd d05f a0bd d6de 03b9
000001a0: e6ca 14bd 8bf8 ea3c 9d26 433d b17c 9f3d
000001b0: 2170 9e3d 185b 98bd 7244 aabd 4114 0abe
000001c0: 6d21 a03b 7cbc 1a3d 9159 afbd d849 2b3c
000001d0: 9224 30bd 7101 873d fa0f b0bd 8868 cabd
000001e0: a156 a4bd 967a d4bd 9ef9 52b9 6803 79bd
000001f0: bedb b13d 3344 e83c 8165 d93d 9ac6 b53d
00000200: 5956 26bd dcc5 05bd 7fab fbbd c21c 8b3d
00000210: 82c6 963d 9675 24bd c92f d63d b0b5 183d
00000220: 522b 0a3c 5f5b c33b 5c32 90bc a6aa 42bd
00000230: a761 2e3d 85b7 30be f9b3 e83c 7ec9 a53c
00000240: e27f b43d a22d c73b 35d0 213c 750c cc3d
00000250: aad3 043e 1299 31be f196 343d e7c3 0dbe
00000260: 5b1a 28bd fc8e 4bbe 7574 ebbd 7a2a 053e
00000270: d772 043e 6149 fc3c 3597 c8bc 8b70 cb3d
00000280: b4ff c43d 2c37 923c a8c1 003e 335b 72bd
00000290: 9a56 10be 502f c3bd c99c abbe ca57 bbbd
000002a0: 4a38 5cbe d8eb 4fbe 3879 0bbd 4ecd 6dbd
000002b0: f3e4 00be 6458 ddbd 6b2c 363d bfee 77be
000002c0: 25a7 50bd 64b7 76bd 0368 103b f034 313e
000002d0: 2c44 5c3d dad4 00be 4a1e d8bd 9a78 20bd
000002e0: 3bd7 36be 2090 ddbd 588a a6bd a912 e73d
000002f0: cef0 423e 7c01 aebc e9c7 783d f7c8 71bd
00000300: 3ae1 0abe 74d5 73be 13a5 823d 373a ffbd
00000310: ea1b 29be e787 2d3c 59c3 8e3d 9d4c 49be
00000320: 91d0 1f3d 1b92 ca3d a620 c83d 952c e33d
00000330: 6d1d 143e 37ab 33bd 48ab 86bd 9cab c7bd
00000340: 9aeb 90be 4d91 c4bd e307 d0bd 13eb 97be
00000350: 72c7 00be 529b dcbd 2634 013d 874f ae3c
00000360: f32c 0dbd eb0c fcbc 489b 2a3e 852f d0bb
00000370: 7a39 e13c c109 123d 88b6 f33d b476 bb3c
00000380: 8b21 ddbd 1b6a 37be b746 15be 2d34 823e
00000390: 2aa2 87bc 10d2 4e3e 35a0 7f3e 1bd5 873c
000003a0: a368 c13d bad8 6abd de9d f0bc 39e3 8cbe
000003b0: 8e6c 36bd 8358 d3bc 59f7 e3bd e090 12bd
000003c0: 9d0f f2bd df65 83bd 79c9 723d 3100 bfbc
000003d0: 6a08 b33c 66bd 75bd 2a8f 913d f64b 56bd
000003e0: ffef 3ebc 6a4c 86bd b75c 02bd bd76 efbd
000003f0: 8a65 06be ab6d 6abe 61d4 a73b 0af7 84be
-0.0023192915 0.2112447 0.22816756 0.25659478 0.13386609 0.07447338 -0.16841097 0.021189803
0.046540223 -0.0077421446 0.18839173 0.16048853 0.004554347 0.09148937 -0.09057832 -0.339524
-0.2846738 -0.047834054 -0.28982335 -0.10657713 -0.17399986 -0.0157321 0.06290355 0.15037091
0.39638683 0.19230258 -0.004830724 0.0135846995 0.01045477 0.054645177 0.1928547 -0.085908405
-0.21458429 -0.21683772 -0.16144533 -0.15052088 0.16467316 0.11306469 0.108747 0.17122848
-0.07280194 -0.1679326 -0.072795354 -0.2051021 -0.22000463 -0.13435352 -0.16632052 -0.18212299
0.008022731 0.029277423 0.11863995 0.2148903 0.08264274 -0.108020015 -0.11467216 0.08561463
0.19307116 0.20362058 0.2503419 0.11192762 -0.097780146 -0.08123558 -0.02539865 -0.039546616
-0.17217684 -0.06563254 0.12489818 -0.1556265 -0.1469026 -0.11678072 -0.22520453 -0.30760568
0.01638663 0.06615795 0.05819381 0.12864874 0.16702247 0.028163442 -0.095672116 -0.08823239
-0.20571153 -0.060866926 0.04099103 0.19501302 0.10296617 0.12170638 0.16864525 -0.16524635
-0.17538977 -0.19229984 -0.05154805 0.025820145 0.13158733 0.0698865 0.13204655 -0.006170415
-0.036056444 -0.037600227 -0.33519998 -0.007690316 -0.045328986 -0.08485494 -0.07830775 -0.00012576146
-0.03632631 0.028682968 0.047644246 0.07787455 0.07736231 -0.0743925 -0.08313836 -0.13484289
0.004886797 0.03777741 -0.08562005 0.010454617 -0.043003626 0.06592072 -0.08596797 -0.09883219
-0.08024336 -0.10374944 -0.0002012015 -0.060794264 0.086844906 0.028352832 0.106150635 0.08875771
-0.04060969 -0.032659397 -0.1228857 0.067925945 0.07362081 -0.0401512 0.10458333 0.037282646
0.00843318 0.00596182 -0.017602138 -0.047526024 0.042573597 -0.17257507 0.02840613 0.02023768
0.08813454 0.006078438 0.009876301 0.099633135 0.12971368 -0.17343548 0.04408926 -0.13844262
-0.04104076 -0.19878763 -0.11496822 0.13004485 0.12934433 0.030796709 -0.024486164 0.09933575
0.09619084 0.017848574 0.12573874 -0.059169006 -0.14095536 -0.095305085 -0.33518055 -0.09147604
-0.21505848 -0.20304811 -0.03405115 -0.058057122 -0.12587337 -0.10807875 0.044475954 -0.24212168
-0.05094065 -0.06023349 0.0022034652 0.1730535 0.05377595 -0.12581196 -0.10552652 -0.039177515
-0.17855541 -0.10818505 -0.08131856 0.11282856 0.19037172 -0.021240942 0.060737524 -0.059029546
-0.1356248 -0.23811895 0.06379142 -0.124622755 -0.16514555 0.010591484 0.06970853 -0.19658132
0.039017264 0.09891149 0.09771852 0.11092488 0.1446435 -0.043864455 -0.06575638 -0.09749529
-0.2830475 -0.095980264 -0.10157754 -0.29671535 -0.12576082 -0.107718125 0.031543873 0.021278156
-0.034466695 -0.030767879 0.16660798 -0.006353321 0.027493227 0.035653833 0.119000494 0.02288375
-0.107974134 -0.1791157 -0.14577757 0.25430432 -0.016556818 0.2019732 0.24963458 0.016581109
0.09443786 -0.057335593 -0.029372152 -0.27517107 -0.04453712 -0.025799042 -0.11131162 -0.035782695
-0.11819384 -0.06415915 0.05927417 -0.023315521 0.021854598 -0.059995078 0.071073845 -0.052318536
-0.011653899 -0.065575436 -0.0318267 -0.116925694 -0.13124672 -0.22893398 0.005121753 -0.25969726

conv2_layer.bias f4 [32]
00000000: 1f77 c4bc 894e c8bb 3e6b 3abd 974a 2ebd
00000010: 7636 143c ee95 e13d c384 69bd 5540 30bc
00000020: e368 adbd 7337 a33c 7b5b 66bc 9656 d73c
00000030: 9810 533d 79d5 5d3d 6c78 5ebc cf36 adbc
00000040: 0e66 45bc a18c a6bd 0b0f 8f3b 2a3b 56bd
00000050: 1a69 3bbd ce81 dfbc 8d79 b3bd fec2 b6bd
00000060: eb53 79bd acff 163d f371 493d a10d 2e3c
00000070: 85c1 063d 0525 a4bd 2139 babd 82a1 d4bd
-0.023982583 -0.0061128777 -0.04551243 -0.042551603 0.009046188 0.11014925 -0.057011377 -0.010757525
-0.08467271 0.019923901 -0.014059897 0.026286405 0.051529497 0.05415866 -0.0135785155 -0.021144299
-0.0120482575 -0.081322916 0.004365807 -0.052302517 -0.04575453 -0.027283575 -0.08763418 -0.089239106
-0.060871046 0.03686492 0.049180936 0.010623367 0.0328994 -0.080148734 -0.09092928 -0.10382368

fc1_layer.weight f4 [128, 1568]
00000000: 84f0 f03c 5ff9 90bb bab4 c03c cd82 fe3b
00000010: 9e3e e13c 2d26 c9bb b84a 83bc 0e1c da3d
00000020: 9c31 0e3d 2c8f 193d 5952 253c 4ee8 8dbd
00000030: c061 89bd 5967 b23c be5e e3bb af80 3c3e
00000040: 2acf afbd 579c e4bd eda9 e6bd 919a 57bd
00000050: edee c13d 50a4 17be 303d 77bd 1fe5 abbc
00000060: 13e8 6e3d eebc a73b 2498 6a3e 5dea 9f3d
00000070: 5c8d 4a3d ec14 c83d bf5f 9c3d 194d d73d
00000080: d606 ce3d dc31 e33d 2731 273d 2fc9 6fbb
00000090: 492e 6f3d 98f6 383d 9d1d c0bc 6ecf c83b
000000a0: 2922 0fbd 8efd f1bd faf7 a0bd 523a 45be
000000b0: ca89 72bd 0cd2 d23c a6f1 d33d 1b2f 703c
000000c0: cff6 833c 2eab d1bc 73dd d0bc 6910 2fbe
000000d0: c76d 26be 503e 8dbd c25d d7bd 1386 37bd
000000e0: e2f4 553c 64fa b1bd d7f5 933d e31a bcbd
000000f0: 2b32 66bc 702f 9f3c 7b90 eb3d 4107 8e3d
00000100: 02cf 8fbd 3672 093d 008c ca3c 69ab 8fbd
00000110: e134 203e a606 87ba a845 e13c 28b4 623d
00000120: 7b71 213d 70ed a6bd 7369 fabc 29f0 633c
00000130: 375e 123c bb4f 093d d100 f43c f887 25be
00000140: 8aec 3cbd 30aa b63b b095 103e 5108 fbbc
00000150: a98e 63bc 58b5 a0bd 0263 74be 7ffd d4bd
00000160: 40d3 113e 8252 ac3d cbda fc3c 9244 1d3a
00000170: 5aff 39be 610e 3fbe 3a26 4fbd 9f78 21bd
00000180: 801e b33c a312 053d c5e5 53ba 7a4b 77bc
00000190: 7bcd f43b f9c6 48bd 6aab 183d 374f b7bb
000001a0: 4e17 823b d92b f23d 4512 fd3d 4277 cabc
000001b0: 3abf f0bc 3b65 a93c cab6 a5bd 05b5 ca3a
000001c0: a8cf 2bbe 347b a13d 5bbe 2dbd 204c dabd
000001d0: fb0d a6bc a115 473d 29da 573c 1a9a e3bd
000001e0: 88b0 5fbe 7f5a 8abc f37f 9e3c 7d0d e63c
000001f0: 139d 083e 3c6f 7e3d 0270 7a3d 6a07 0b3e
00000200: 1cfa e83d ee75 d63d 8de8 763d d191 f53d
00000210: bdd9 183e 6d83 19bd 36d7 4dbb be61 173d
00000220: b53a d13c 0207 0fbd 79cc 13be e9b3 91bd
00000230: 632b c23c ac83 00bd aad5 f6bc 6184 583d
00000240: fa7a 913d 42df e73b 8215 bd3c d08d 873c
00000250: fc13 16bd 9913 08bd 7435 53bc d284 84bd
00000260: ce9d d53c 10d0 303b 198f d1bc 91e4 2ebc
00000270: 5a98 10be 0287 03bd 37dd 7dbd fa96 8b3c
00000280: ba09 b8bd fd44 8e3b f8fb 49bc c2f6 adbc
00000290: a1d5 4a3c 16c1 a33c d595 4a3d 47c6 bfbd
000002a0: e7e4 b8bb 50de 4c3d ca75 973d d242 edbd
000002b0: 000c 01bd 5e3b f73c f825 d5bd a674 a73b
000002c0: 6e0f b43d 4dab d53d 82e6 53be cec7 42be
000002d0: e87e 0dbe 239f 0cbe 3fd2 d1bc c9e8 b43d
000002e0: d8fa 6fbc 5fd2 27be 3e1a a5bd 28a0 4dbe
000002f0: af32 d9bd ab2d edbc c7f8 89bc b67f 18be
00000300: 8fdd 3dbd 73a5 4abd 031e 6dbd 107b f0bb
00000310: cba8 993d 8cf6 8fbd 46d0 73bc 43e9 d1bc
00000320: 56ad f2bd 580d 3c3d f3bb 1cbc 575f 863c
00000330: 5bc4 1a3d d636 0dbe fb3a d03b 8640 183e
00000340: 473a c73d 8d5a ccbc ac4e b6bd 63eb 3c3d
00000350: 781e df3c 5c88 513d e089 cf3d f619 1a3e
00000360: be87 7d3e a17d 3ebd 6460 2b3d ffad 363d
00000370: be41 43bd d171 103d 1a1b 173e 9988 9abd
00000380: 7997 d83d 0a2d ca3d 65d7 373d e9b0 42be
00000390: a8b4 0dbe 1354 bdbd 6d53 013d 184a e13c
000003a0: 4222 b13c 5d9a a33d 7ced 31be e782 b7be
000003b0: eac1 87be ff93 2dbc 3aea 883d 5278 aa3d
000003c0: b302 1bbe c486 bebd 8a9c 00be bbc0 0bbe
000003d0: 269c 473c 3b24 b3b9 fe6e 313c 0da9 44be
000003e0: 993b 92bc e075 23be f766 8c3a 2b0f 45bc
000003f0: 092b e3bd 76de c03a 0c4f 21bd 3878 24bd
0.029411562 -0.0044242586 0.023523677 0.0077670575 0.027495679 -0.006138584 -0.01602684 0.10649882
0.03471528 0.037490055 0.010090434 -0.06929074 -0.067080975 0.021777796 -0.0069387844 0.18408464
-0.08584435 -0.11162632 -0.112628795 -0.05263764 0.094693996 -0.14808774 -0.060361087 -0.020983277
0.058326792 0.0051189577 0.229096 0.07808373 0.049451217 0.097696155 0.076354496 0.10512752
0.100598976 0.11093494 0.04081836 -0.003658842 0.05839375 0.045157045 -0.02345162 0.006128243
-0.034944687 -0.1181594 -0.07859798 -0.19260529 -0.059213437 0.025734924 0.10348825 0.014659668
0.016108898 -0.02559432 -0.02549622 -0.17096104 -0.16252814 -0.06896651 -0.1051593 -0.044805598
0.013058873 -0.08690336 0.072246246 -0.09184816 -0.014050047 0.0194318 0.11502167 0.06934977
-0.070219055 0.033556186 0.02472496 -0.07015116 0.15645172 -0.0010301664 0.027499035 0.05534759
0.039414864 -0.08150756 -0.03056786 0.013912239 0.008933595 0.033523303 0.029785546 -0.16165149
-0.04612402 0.005574487 0.14119601 -0.030643614 -0.013888993 -0.078470886 -0.23865893 -0.10399913
0.14240742 0.084141746 0.030866047 0.00059992925 -0.18163815 -0.18657829 -0.050573565 -0.039421674
0.02186513 0.032488476 -0.00080832496 -0.015093679 0.0074707842 -0.04901788 0.03727285 -0.00559416
0.0039700633 0.118247695 0.12357 -0.02471507 -0.029388059 0.020678153 -0.08091505 0.0015465325
-0.16778433 0.07884827 -0.042417865 -0.10659051 -0.020270338 0.04860461 0.013174572 -0.11113377
-0.21844685 -0.016888855 0.01934812 0.028082604 0.13341169 0.0621178 0.061141975 0.13577047
0.113758296 0.10471712 0.06028037 0.11990703 0.1492681 -0.037478853 -0.0031408793 0.03695845
0.025540689 -0.034918793 -0.14433469 -0.07114393 0.023702329 -0.031375572 -0.03013118 0.05286062
0.07103534 0.007076175 0.023081545 0.016547114 -0.036640152 -0.033221815 -0.012891162 -0.06470646
0.026076224 0.0026979484 -0.02558093 -0.010674612 -0.14120618 -0.032111175 -0.061978545 0.017039765
-0.0898623 0.00434172 -0.01232814 -0.021235827 0.012380035 0.019989531 0.049459297 -0.0936399
-0.0056425217 0.0500167 0.07395513 -0.115850106 -0.031505585 0.030179676 -0.104076326 0.005110341
0.087920055 0.10433064 -0.206934 -0.19021532 -0.13817942 -0.13732581 -0.025612948 0.08833463
-0.014647208 -0.16388844 -0.08061646 -0.20080626 -0.1060537 -0.02895244 -0.01684226 -0.14892468
-0.046353873 -0.04947419 -0.05788995 -0.007338889 0.07502898 -0.07029447 -0.014881199 -0.025623923
-0.118494675 0.045911163 -0.009566295 0.016402883 0.037784915 -0.1379045 0.0063546873 0.14868364
0.097279124 -0.024945522 -0.08901724 0.04612292 0.027236208 0.051155433 0.101337194 0.15048966
0.24758813 -0.046506528 0.041839972 0.04459953 -0.04767012 0.035264794 0.14756432 -0.07545585
0.10575766 0.09871872 0.04488315 -0.19012798 -0.13838446 -0.092445515 0.0315737 0.027501151
0.02162278 0.07988427 -0.1737575 -0.35842058 -0.26515132 -0.010594367 0.066853 0.083237305
-0.15137748 -0.09303048 -0.12559715 -0.1364774 0.012183225 -0.00034168534 0.010829685 -0.19205113
-0.017850684 -0.15962934 0.0010711838 -0.012027542 -0.11092193 0.0014714736 -0.039382026 -0.040153712

fc1_layer.bias f4 [128]
00000000: 4e31 63ba 2013 c73c cb86 12bd 4699 adbc
00000010: 41fc e6bc 010d 323d 90b9 d53a 198b 26bd
00000020: 3617 3c3c 0f48 46bd 385d bcbc 58ab 143c
00000030: 1e37 2ebb ab66 9d38 4851 3b3d 3af8 263c
00000040: 9177 123d 4880 82bc e37a 003d a44a 02bd
00000050: fd60 2fbc 8257 43bc 4c0c aabb b23f 34bd
00000060: 9d05 9db9 ea20 c7b9 8f4f 51bc 222f c3bb
00000070: 7feb ea3b eeb5 603c cd70 cebb e0c8 e43b
00000080: 36f4 0dbc 477d 0fbb 4571 af3b d6b1 543c
00000090: 9988 f8bc ec6d 343d be17 6e3c 3ede f7bc
000000a0: 9cab ef3c 11cc 3abc 5328 d13b 0bcd 61bc
000000b0: 964c 30bd 85b7 cdba 9c1f 4e3c b83f cc3c
000000c0: 8ef0 893b 34dc b7bb 326f cdba ceca 43bd
000000d0: 5b32 26bd 264c 85bc 32e0 aebc c7bb 29bc
000000e0: 1654 433d 01ff 603b 99f1 ff3c bacb 9dbc
000000f0: be84 ecbb 81e2 ebbc 86cd c23c ac63 193b
00000100: 317c ec3b d16c 09bd 9f3c 04bc 42de 0cbd
00000110: 54d5 ee3c a189 353c 7701 e5bc cc72 1b3d
00000120: 2b8d 693b 2a7f 19bc 6ca0 24bd f4d3 ed3b
00000130: f8a3 a13c e600 c83b b18d f6bc 55eb 133d
00000140: 268e 013c 9f82 e2bc b2c1 81bc 335f 913c
00000150: 5c68 97bc dccf 2d3d bb0c 33bd f241 883a
00000160: f363 143d c74d aa3b f05b a0bb 06c2 5bba
00000170: c583 19bd 8882 0abd 71f1 3e3d 6121 6b3d
00000180: badc cdbc b698 eabc 3b05 ff3c a598 c8bc
00000190: 8ff7 083d 6bda 15bc 8288 663d e262 563d
000001a0: 6c31 afbc ad1d 40bd 6add a1bb ec33 a93c
000001b0: 35f1 f4bc 85e0 1abd dc61 a8bc 0090 1dbd
000001c0: 3a87 2bbd f939 a63a 39e1 da39 45c2 933b
000001d0: 661d 09bc aacf 553d d249 05bd 1437 85bc
000001e0: 7c06 f4bc 445f abbc a5b7 1b3a 1fdd 3c3d
000001f0: e01c 753d ec2a fdbc 3a1e 163d 5d1a 6bbb
-0.000866671 0.024301112 -0.03577308 -0.02119125 -0.028196456 0.043469433 0.0016305912 -0.040659998
0.011480143 -0.048408564 -0.022993669 0.009074055 -0.0026583145 7.505467e-05 0.045731813 0.010191018
0.03575856 -0.01593031 0.031367194 -0.031809464 -0.010704276 -0.011922719 -0.005189454 -0.044006057
-0.00029949556 -0.0003798076 -0.012775316 -0.0059565464 0.0071691866 0.01371525 -0.006300068 0.006981954
-0.008664181 -0.002189474 0.005354079 0.0129818525 -0.030338572 0.044050142 0.014532028 -0.03025734
0.029256634 -0.011401192 0.006382981 -0.013781796 -0.043041788 -0.0015694952 0.012580778 0.024932727
0.0042095846 -0.005610967 -0.0015673398 -0.04780083 -0.040575366 -0.016271662 -0.021347139 -0.010359711
0.047687612 0.0034331682 0.031243132 -0.019262183 -0.0072179725 -0.028794529 0.023779642 0.0023405356
0.007216953 -0.03355104 -0.008071094 -0.03439165 0.029154457 0.011080177 -0.0279548 0.037951276
0.0035637121 -0.009368697 -0.040192053 0.007257933 0.019731507 0.0061036227 -0.03009686 0.036113102
0.007907426 -0.027650176 -0.015839431 0.01774559 -0.01848238 0.04243456 -0.043713313 0.001039563
0.03622813 0.00519726 -0.0048937723 -0.0008383099 -0.03747918 -0.03381589 0.046616975 0.05740488
-0.025129665 -0.028637271 0.031130424 -0.02448685 0.033439215 -0.009146313 0.056282528 0.052340396
-0.02138587 -0.0469033 -0.0049397247 0.020654641 -0.029900173 -0.037811775 -0.020554475 -0.038467407
-0.04187701 0.0012682072 0.00041748004 0.0045092427 -0.008368826 0.052199997 -0.032541104 -0.016261615
-0.029788248 -0.02091945 0.0005940146 0.046109315 0.05984199 -0.030904256 0.03664992 -0.0035873868

fc2_layer.weight f4 [10, 128]
00000000: 896c 0c3e 9a88 9f3d 85ad 24bd 9dba 28bd
00000010: 62ca 663c d7fb f0bd ce2f a1bd 5955 e13d
00000020: 8abf 9bbd 3429 663c 25a8 263d 514c 8abd
00000030: 79f2 863d 25af 95bc 0b60 05be cb16 99bd
00000040: 5019 063d 0111 d5bd b2f3 fbbd d905 953b
00000050: a52b 873d ede3 613d b5ac 343d 76ab e63c
00000060: fc60 bb3a 207f af3b 12ce cdbd d5f1 1cbc
00000070: 132c a93d 158f d53c e29b 813d ce03 7fbd
00000080: 66a9 b3bb 3f43 f53b 7052 a6bd ff08 9cbb
00000090: 1db2 be3d a1d0 923c f57c 15bc 047b ab3d
000000a0: faae a33d 61b2 4abe 218e 59be a515 543c
000000b0: bc45 c3bd 51fe dc3c e011 97bd 2578 1fbc
000000c0: 5aed 523d 10a8 b03d c37f 1e3e cce5 5abd
000000d0: 0905 0b3c f30b 12bd 37c6 7fbc 2530 a8bd
000000e0: ca7f f83d f353 80be 3f59 943d 13b9 6c3b
000000f0: 4bdc 80bd 879c 35bd b794 76bb 80a0 793d
00000100: 5706 95bd 206d 813c be64 c73c 854e d2bc
00000110: 10f3 263d bc1c 14be 8882 78bd a345 4d3d
00000120: 19a9 9cbc 680c 6dbd b999 41bb 7dce a7bc
00000130: 518a cebd 761a 4f3d ec58 41be 48e5 aa3d
00000140: 6408 7cbc 3657 783d b1c8 eabc c68c 883d
00000150: d107 2f3d fd17 c13d ceee d63d e6c4 003e
00000160: 2b88 813c 34d7 ca3c 8960 8dbd e1a2 a4ba
00000170: 6f95 49be dc43 2cbd bd4a a73d 7722 efbd
00000180: 6d8c 5e3d dc7b 19bd a286 47be 1da0 2d3c
00000190: 3b2a 1b3e 6925 913d 9997 803c cf20 2e3d
000001a0: 96ff 383b 9b82 d7bd 7848 143e 451c 2c3d
000001b0: 4515 103c f335 fdbc 5740 b9bc feb5 12bd
000001c0: c591 0d3d 66ad 193d 3d1e 4d3c 56ef e1bd
000001d0: 6e6a 8cbe fca5 c6bd c0fe bdbb cac8 01bd
000001e0: b91c 34bd 0f3d b4bd a917 fdbd 748c 3d3d
000001f0: 4412 073d 2d22 8aba d40b da3d 3946 96bd
00000200: f807 d2bd 4c6a 88be 5124 87bd 5e72 1c3d
00000210: eb72 2cbc 2369 c63d aecd 9bba af41 87bd
00000220: 198f 39bc 5893 09bd 71ed b0bd 1443 8cbd
00000230: 963b 1d3d d0bc 3b39 6d4c c73d 922e 3d3b
00000240: 4355 1f3e 5b6e cfbd 8ead 3a3d e077 32bc
00000250: e2cc 473d e0a7 a43d 38c1 c4bc 2574 bbbc
00000260: f95f 203d 7b82 0ebe b7d6 753d 0709 833c
00000270: ca96 5cbc 2933 25bd 657d 5d3d ee8c 80bd
00000280: 5158 85bd 9492 dab9 fdb2 a53d f729 25bd
00000290: 3030 21be f53d 083e 6c70 8cbc 0608 b7bd
000002a0: 7438 10be 2002 7bbc a996 e33d 00e9 1bbd
000002b0: 2bf0 09bd cc7b b2bd e306 38bd 3c5b c03c
000002c0: 8d44 0cbe 48c6 613d 6742 c13c 57cd 6cbc
000002d0: 8134 34bd 775a 843d 9d9d e8bb 0e8b a5bc
000002e0: aae1 143e 8b0c 1f3d 8155 17bd 924f 9c3d
000002f0: bbc3 473d a3e5 e5bd 708b 113d ee9a 8abe
00000300: c2e4 553d 01eb fb3c de25 c83c aef1 50bc
00000310: f4df 0fbe ff4c 80bb 4428 59bd b43a db3c
00000320: ce00 0f3e e6a1 50bd 0347 6dbe fb75 3c3d
00000330: 6c4f a43d 5433 c03c d048 dfbd 0e45 d4bd
00000340: 2b36 0b3d 478a 48be b3fe 6a3d 8485 563d
00000350: e395 8f3c 0a26 f13d 0055 13be 6044 a5bc
00000360: e86f 583d 682c 3fbd 6967 b1bc d3dd e1bd
00000370: 653c 1bbe e872 32bd 735f 903d 555c 093e
00000380: 4708 593d 1b0b 33bd cbdb e43d 51bb 9d3d
00000390: e730 053e 9c6c 9cbd 661e 2e3e 0379 a03d
000003a0: b088 453a 493d b3bd 1520 2d3e 3937 42be
000003b0: 4675 0ebd dbab 853c 1701 96bc e535 0fb9
000003c0: aa96 d6bd 3d29 1b3d 847b 963d 47c8 e0bd
000003d0: 998b a8bd a9b2 303d a7d3 a43d 6715 a63d
000003e0: 076a bb3a 7b5f b83c feed 803c bc2d d03d
000003f0: 741a 2b3e 3bee acbc 6e47 1c3e b957 81bd
0.13713278 0.077897266 -0.040204544 -0.041193593 0.014086338 -0.11766785 -0.07870446 0.11002607
-0.076048926 0.0140479095 0.0406877 -0.067528374 0.06589217 -0.018271992 -0.13024919 -0.074750505
0.032738984 -0.10403634 -0.123023406 0.0045478162 0.066001214 0.055149008 0.04411002 0.02815793
0.0014295871 0.0053557307 -0.100490704 -0.009579142 0.082603596 0.026069203 0.063285604 -0.062259488
-0.0054828404 0.007484823 -0.081211925 -0.0047618146 0.09311316 0.017921748 -0.00912403 0.08373073
0.079923585 -0.19794609 -0.21245624 0.012944614 -0.09534785 0.026976736 -0.07376456 -0.0097332345
0.051495887 0.086258054 0.15478425 -0.053441808 0.008485087 -0.035655927 -0.015611223 -0.08212308
0.12133749 -0.25064048 0.07243585 0.0036121055 -0.062920175 -0.04433873 -0.0037625262 0.06094408
-0.072766 0.015799105 0.02434003 -0.025672207 0.040759146 -0.14464086 -0.06067136 0.05011524
-0.0191236 -0.05787316 -0.0029541089 -0.020484203 -0.100849755 0.050562344 -0.18881577 0.08344513
-0.01538286 0.060630046 -0.02866015 0.066674754 0.042732064 0.094284035 0.10494767 0.12575111
0.015812 0.02476082 -0.06903178 -0.0012560749 -0.1968591 -0.042056903 0.08168552 -0.116764955
0.05433314 -0.037471637 -0.19484952 0.010597256 0.15152828 0.070872135 0.015697287 0.042511757
0.0028228513 -0.10522958 0.1448077 0.042019147 0.008794134 -0.030909514 -0.022613687 -0.035818093
0.034562845 0.03751888 0.012519416 -0.11031978 -0.2742495 -0.09699628 -0.005798191 -0.031685628
-0.043972705 -0.088007085 -0.123580284 0.046276525 0.032976404 -0.001053875 0.10646787 -0.07337613
-0.10255426 -0.26643598 -0.06598724 0.038195007 -0.010525445 0.09688022 -0.0011886859 -0.06604325
-0.011325621 -0.033587784 -0.08639038 -0.06848732 0.038386904 0.00017904048 0.09731374 0.002886687
0.15559869 -0.101284705 0.04557567 -0.010892838 0.048779376 0.08039832 -0.024017915 -0.02288253
0.039154027 -0.13916962 0.06001922 0.015995516 -0.013463685 -0.040331993 0.054074664 -0.0627688
-0.06510986 -0.0004168941 0.0809078 -0.040323224 -0.15741038 0.13304885 -0.01714345 -0.08937077
-0.14084035 -0.015320331 0.111127205 -0.038064003 -0.033676308 -0.08715019 -0.044928443 0.023481004
-0.13698025 0.055120736 0.023591233 -0.014453254 -0.043995384 0.06462567 -0.007098867 -0.020207908
0.14539209 0.03883032 -0.036946777 0.07632364 0.048770647 -0.1122544 0.03553337 -0.27071327
0.052220114 0.030751707 0.024432119 -0.012752933 -0.14050275 -0.0039154286 -0.053016916 0.02676139
0.1396515 -0.05093565 -0.2317162 0.046010952 0.08022961 0.023461975 -0.1090256 -0.10364734
0.033987205 -0.19583999 0.057371806 0.052373424 0.017527526 0.117748335 -0.14387894 -0.020174205
0.052841097 -0.04667321 -0.021655755 -0.11028638 -0.15159757 -0.043566614 0.070494555 0.13414128
0.05298641 -0.043711763 0.11174735 0.077017434 0.13006936 -0.07637903 0.17003784 0.07835581
0.00075353216 -0.087519236 0.1690677 -0.18966378 -0.03477981 0.016317299 -0.018311067 -0.0001365762
-0.10477956 0.037881125 0.073477775 -0.109757 -0.08229751 0.043139134 0.08048182 0.08109551
0.0014298566 0.022506466 0.015738484 0.10164973 0.1670931 -0.02110969 0.15261623 -0.0631556

fc2_layer.bias f4 [10]
00000000: 8c1b 74bd ad25 163d 1890 0f3d 1c23 cabc
00000010: 37cb 09bd f4cd 42bc 9835 e03c 1a5d 8abd
00000020: 31f1 ad3d 78cc e33c
-0.059596583 0.036657024 0.035049528 -0.024674945 -0.033641066 -0.011889923 0.027369305 -0.06756039
0.08493269 0.02780746
